model/keypoint_classifier/keypoint_classifier.tflite (tflite, 6544 bytes, 6 tensors)

sequential/dense/BiasAdd/ReadVariableOp f4 [20]
0	0xbf1e92a9	-0.61942536
1	0xbeb8e7cd	-0.3611435
2	0x3d7cdc40	0.061733484
3	0xbefa4c90	-0.48886538
4	0xbe8e7752	-0.2782541
5	0xbeab5435	-0.33462682
6	0xbee01e4f	-0.43773124
7	0xbf3cfdb8	-0.73824644
8	0xbef65a3f	-0.48115727
9	0xbf863c15	-1.0487086
10	0xbea42df2	-0.32066303
11	0xbe952169	-0.29127052
12	0xbece4e25	-0.40293995
13	0xbf3e61d7	-0.7436804
14	0x3e4f6d0e	0.20256445
15	0xbec2f429	-0.38076904
16	0xbf659bab	-0.89690655
17	0xbf3ca759	-0.7369285
18	0xbf3eab66	-0.74480283
19	0xbea6e6e4	-0.3259803

sequential/dense_2/BiasAdd/ReadVariableOp f4 [4]
0	0xbf2c8381	-0.6738816
1	0xbee20648	-0.44145417
2	0x3f4d7ca9	0.8026834
3	0x3e96a81e	0.29425138

sequential/dense_1/BiasAdd/ReadVariableOp f4 [10]
0	0x3ee6d106	0.45081347
1	0xbdcdded9	-0.100522704
2	0x3eb6413e	0.3559665
3	0x3f52e2a9	0.82377106
4	0xbe240eeb	-0.16021316
5	0x3e196314	0.14979202
6	0x3ee6b230	0.4505782
7	0x3f4a5e3b	0.79050034
8	0xbcf437a9	-0.029811697
9	0x3e9527e2	0.2913199

sequential/dense/MatMul f4 [20, 42]
0	0x3e83e73c	0.25762355
1	0x3e594324	0.21217018
2	0x3dfa6c36	0.12227671
3	0xbf18633e	-0.5952643
4	0x3f03ead0	0.5153017
5	0xbf103700	-0.56333923
6	0x3e6540cb	0.22387998
7	0xbf2902d9	-0.6601997
8	0x3ea1cc4b	0.31601176
9	0xbeaa106a	-0.33215648
10	0xbdc63f5c	-0.096800536
11	0xbdc47a48	-0.09593636
12	0x3bb3ff53	0.0054930835
13	0xbcb397e8	-0.02192302
14	0xbe2f9a49	-0.17148699
15	0x3e495d3f	0.19664477
16	0xbe56f277	-0.2099093
17	0x3e85e77f	0.2615318
18	0x3e047830	0.12936473
19	0xbc4f3a0b	-0.012648116
20	0x3e0e8108	0.13916409
21	0x3db76225	0.089542665
22	0xbdf77027	-0.12081938
23	0x3e33b665	0.17550047
24	0xbda665b2	-0.081248656
25	0x3e272cc0	0.16325665
26	0x3d8e0a84	0.069355994
27	0xbdfdeeb1	-0.123990424
28	0x3e3cc98f	0.18436264
29	0x3c867493	0.016413009
30	0xbc836941	-0.0160414
31	0x3d9ef9f6	0.0776252
32	0xbe0b3d37	-0.1359757
33	0x3e26a3a7	0.16273366
34	0x3e705efb	0.23473732
35	0xbe2843a3	-0.16432051
36	0x3e1196dc	0.14217705
37	0xbee52a13	-0.44758663
38	0x3e008c35	0.12553485
39	0xbe047377	-0.12934671
40	0x3c9e31b1	0.019310804
41	0x3c789add	0.015173641
42	0xbe910fc7	-0.2833235
43	0x3e7417c4	0.23837191
44	0x3f8844f8	1.0646048
45	0x3e56cb8a	0.20976081
46	0x3efc9ec6	0.49339885
47	0x3e3b792e	0.18307945
48	0x3f0286b3	0.50986785
49	0x3e109cea	0.14122358
50	0x3f066f4f	0.52513593
51	0x3e19c24e	0.15015528
52	0x3e375439	0.17903222
53	0x3ed90e30	0.42393637
54	0x3d91e8d1	0.07124484
55	0x3ea76095	0.32690874
56	0x3d218c1f	0.03944027
57	0x3e1833fd	0.14863582
58	0xbd14adfb	-0.036298733
59	0x3e0a9007	0.13531505
60	0x3e8c9470	0.27457
61	0x3e9ede1b	0.31028828
62	0xbd4a4647	-0.049383428
63	0xbe621ff3	-0.220825
64	0x3e34014d	0.17578621
65	0x3e55ad90	0.2086699
66	0x3e033952	0.12814835
67	0x3ed48a8a	0.41511947
68	0x3e08cbca	0.1335899
69	0xbd71db16	-0.059046827
70	0xbc89fbf9	-0.016843783
71	0xbd78d866	-0.06075325
72	0xbdedcb2d	-0.11611018
73	0x3e28b3a0	0.16474771
74	0xbd35a7c1	-0.044349436
75	0x3e9b2dce	0.30308384
76	0xbd802f99	-0.062590785
77	0xbdf215ea	-0.11820586
78	0xbd8f93ff	-0.0701065
79	0xbef716e5	-0.48259655
80	0xbc997780	-0.01873374
81	0xbd8db51f	-0.06919312
82	0xbd86e3de	-0.06586431
83	0x3e922ae1	0.2854834
84	0xbdc72bf8	-0.09725183
85	0x3e0457c8	0.12924111
86	0xbeacca10	-0.3374791
87	0x3eda3b45	0.42623344
88	0xbdf3c5a8	-0.11902934
89	0x3e75f324	0.24018532
90	0x3dacc884	0.08436683
91	0x3e2e79df	0.17038678
92	0x3e65c503	0.22438435
93	0x3e02265a	0.12709942
94	0xbe38aa6c	-0.18033761
95	0x3d95cd78	0.07314581
96	0xbd3df898	-0.046379656
97	0xbc8e57a1	-0.01737577
98	0xbdca747d	-0.098854996
99	0xbf0f0330	-0.5586424
100	0xbe902062	-0.28149706
101	0xbe922c66	-0.28549498
102	0xbd825519	-0.06363887
103	0xbe15a396	-0.14613184
104	0x3d5ee63e	0.054418795
105	0x3defca67	0.11708527
106	0xbb447054	-0.002997418
107	0x3e64760c	0.22310656
108	0xbc227bc8	-0.009917207
109	0x3e9c4d09	0.30527523
110	0xbd074c74	-0.033031896
111	0xbec3b8c1	-0.38226894
112	0x3dc0212f	0.09381329
113	0xbc0cdb8e	-0.008597268
114	0x3dd1c624	0.102428705
115	0x3e933821	0.2875376
116	0x3da17a15	0.078846134
117	0x3edadc43	0.4274617
118	0x3d850c7c	0.06496522
119	0xbf3ee066	-0.74561155
120	0x3dd8b6f0	0.105817676
121	0xbeac063e	-0.33598512
122	0x3e038aee	0.12845966
123	0x3e86e2ae	0.26344818
124	0x3ced9014	0.028999366
125	0x3e601ba3	0.21885543
126	0x3e687e78	0.22704494
127	0xbe608b65	-0.21928175
128	0x3d249575	0.040181596
129	0x3e47810b	0.1948282
130	0x3e0d278b	0.13784616
131	0xbe314f73	-0.17315464
132	0x3e827f33	0.2548767
133	0xbeff8193	-0.49903545
134	0x3eb1c8f0	0.34723616
135	0xbf19b435	-0.600406
136	0xbe4e7aac	-0.20163983
137	0x3c72c323	0.014817032
138	0xbd89a6ab	-0.067212425
139	0xb94d0c42	-0.0001955489
140	0x3ca20d44	0.019781716
141	0x3cf0d8a6	0.029400181
142	0x3d970b3e	0.07375191
143	0x3b3a82b7	0.002845926
144	0xbe31f865	-0.17379911
145	0xbd19f8c1	-0.037590746
146	0xbc3ea575	-0.011636128
147	0xbdd57296	-0.10422246
148	0xbb96b240	-0.004598886
149	0xbc00b1e3	-0.0078549115
150	0xbe2e31f3	-0.17011242
151	0x3e348d92	0.1763213
152	0xbd719188	-0.05897668
153	0xbe0cc7e3	-0.13748126
154	0x3c65a015	0.014015217
155	0xbda89561	-0.08231617
156	0xbe1c0ed6	-0.15240034
157	0x3e433cfe	0.19066235
158	0xbe0fc578	-0.14040172
159	0x3f478743	0.7794077
160	0x3de08224	0.10962322
161	0xbe6a12e8	-0.22858775
162	0x3d1c16e7	0.03810778
163	0x3ca8b59a	0.020594407
164	0xbe13e46f	-0.14442609
165	0x3ecb78dc	0.39740646
166	0xbecded1f	-0.40219972
167	0x3f6e33b3	0.93047637
168	0x3d95ff44	0.07324079
169	0x3e67895c	0.22610992
170	0xbf1b5284	-0.60672784
171	0x3ebbc0f6	0.36670655
172	0xbe9eab2c	-0.3098997
173	0x3e60d417	0.21955906
174	0xbd995ee5	-0.07488803
175	0x3e2f9ef0	0.17150474
176	0x3c9da166	0.019242
177	0x3e2297a2	0.15878156
178	0xbdf0ea92	-0.11763491
179	0xbbbdb948	-0.0057899095
180	0x3d253300	0.04033184
181	0xbdae4815	-0.08509842
182	0x3e7b88d3	0.24563913
183	0xbecf8dcc	-0.4053787
184	0x3f712060	0.94190025
185	0xbf065e88	-0.52487993
186	0xbd76dd92	-0.0602699
187	0xbd266ff7	-0.04063412
188	0xbdac7e48	-0.08422524
189	0x3d1435ea	0.03618423
190	0xbe26ff0a	-0.16308227
191	0x3e408b94	0.18803245
192	0xbe80edea	-0.25181514
193	0x3e50aed2	0.20379189
194	0x3da5d6b7	0.08097594
195	0xbdef21a4	-0.11676338
196	0xbbca000a	-0.0061645554
197	0x3e122ffe	0.1427612
198	0xbe037034	-0.12835771
199	0x3e3adf91	0.18249346
200	0xbe6357a6	-0.22201404
201	0x3ddede3e	0.10882233
202	0x3e4e308d	0.20135708
203	0xbdd6c175	-0.10486118
204	0x3d6971a9	0.05699316
205	0x3dc0ba1d	0.09410498
206	0xbd128229	-0.03576866
207	0x3de4d1df	0.11172842
208	0xbe13b4eb	-0.14424483
209	0x3c557956	0.013029417
210	0xbde41c3c	-0.11138198
211	0xbdd1b006	-0.10238652
212	0xbe8f6d7c	-0.28013217
213	0x3d74b4cd	0.059742738
214	0xbe533b3c	-0.20628065
215	0xbcd891c2	-0.02643669
216	0xbe7c490d	-0.24637242
217	0xbc5a1159	-0.0133098
218	0xbeccd4a1	-0.40005973
219	0x3c9ee707	0.019397272
220	0xbd6c59e2	-0.057702906
221	0x3de3d252	0.111241
222	0x3ce0ce36	0.027442079
223	0xbe891ac3	-0.2677823
224	0xb9bd8fc9	-0.00036156017
225	0xbe5f472d	-0.21804495
226	0x3cf666b3	0.030078268
227	0xbe1fdaa0	-0.15610743
228	0xbd92532e	-0.071447715
229	0x3e53238d	0.2061903
230	0x39e79962	0.00044174033
231	0xbedb178a	-0.42791396
232	0xba7560db	-0.0009360441
233	0xbc24c4d5	-0.010056694
234	0x3dc95654	0.09830919
235	0x3f35bb18	0.7098861
236	0xbd527a97	-0.051386442
237	0x3e3d43f2	0.1848295
238	0xbc3f6fba	-0.0116843525
239	0xbea4323c	-0.32069576
240	0x3e06aa9e	0.13151023
241	0x3f0336fc	0.51255774
242	0x3e039553	0.12849931
243	0x3fa6051f	1.2970313
244	0xbd541147	-0.05177429
245	0x3c45d50a	0.012074718
246	0xba965ef2	-0.0011472388
247	0xbe130f3e	-0.14361283
248	0x3cd728cb	0.026264569
249	0x3ecd861c	0.4014138
250	0x3dcf39d7	0.10118454
251	0x3f99637e	1.1983488
252	0x3e95e724	0.2927791
253	0x3e868062	0.26269823
254	0x3d862e0b	0.06551751
255	0x3e6371ce	0.22211382

sequential/dense_1/MatMul f4 [10, 20]
0	0xbda23aa6	-0.079213426
1	0xbee047ec	-0.43804872
2	0xbeae2f85	-0.3402063
3	0xbe45ec7f	-0.19328497
4	0xbdd41e60	-0.10357356
5	0xbf1d33c4	-0.61407113
6	0x3e6cc0de	0.23120448
7	0x3e0a73d6	0.1352075
8	0xbc119255	-0.008884986
9	0xbe30e372	-0.17274264
10	0xbf5e10ea	-0.8674456
11	0xbee1227b	-0.4397162
12	0x3e942e0c	0.2894138
13	0xbe13bd91	-0.14427783
14	0xbf5c8ac4	-0.8614924
15	0x3f3ef514	0.7459271
16	0xbe9befec	-0.30456483
17	0x3ea6a269	0.32545784
18	0xbea1c29c	-0.31593788
19	0x3f0b903a	0.5451695
20	0x3e90d1a0	0.2828493
21	0x3e63236e	0.22181484
22	0x3dbf3cbe	0.093377575
23	0x3e187e6b	0.14891975
24	0xbc574c73	-0.0131407855
25	0x3e2c0d93	0.16802053
26	0x3dd17d28	0.1022895
27	0x3f4f3bb3	0.8095047
28	0x3f25f02b	0.6481959
29	0x3f82f91d	1.0232273
30	0x3e5062f3	0.20350246
31	0xbd04d8f6	-0.032433473
32	0x3ea5ee9a	0.324086
33	0x3e49394c	0.19650763
34	0x3ea6ce24	0.32579148
35	0x3e9fb157	0.31189987
36	0x3f6900c0	0.9101677
37	0x3f503172	0.8132545
38	0x3f066703	0.52500933
39	0x3ec7557b	0.38932404
40	0x3b2384d1	0.002495099
41	0x3e06f226	0.1317831
42	0x3eda6cea	0.4266122
43	0x3e2ceff8	0.16888416
44	0x3f898baa	1.0745747
45	0x3f20b2b5	0.62772685
46	0x3e6390c0	0.22223186
47	0xbee95a97	-0.45576927
48	0x3e7e17a1	0.24813701
49	0xbf0aefca	-0.5427214
50	0x3f176d12	0.59150803
51	0xbc578d67	-0.013156272
52	0x3ed6d2a2	0.41957575
53	0x3e808b4c	0.25106275
54	0x3f48855d	0.78328496
55	0x3e792e8f	0.24334167
56	0xbe4ea12a	-0.20178667
57	0xbe8e3004	-0.27771008
58	0xbe5b244a	-0.21400562
59	0x3ec374fa	0.38175184
60	0x3e97ddda	0.29661447
61	0xbe96fbc5	-0.2948896
62	0xbf59ef8f	-0.8513116
63	0xbc065d38	-0.008200936
64	0xbf118de6	-0.56857145
65	0xbe81eab6	-0.25374383
66	0xbe3bb52c	-0.1833083
67	0x3f5da2db	0.8657662
68	0xbf44634c	-0.76714015
69	0xbe5571c7	-0.20844184
70	0xbdae85f4	-0.08521643
71	0xbcdcbf05	-0.026946554
72	0xbe53431c	-0.20631069
73	0xbc59ee9d	-0.013301519
74	0x3d3ef734	0.04662247
75	0xbf5fb11d	-0.8737963
76	0xbf0be670	-0.54648495
77	0x3f2ef96c	0.6834934
78	0x3ebad632	0.36491543
79	0xbea11395	-0.31460252
80	0x3e3c39c8	0.18381417
81	0x3f18adb9	0.5964008
82	0x3e9f6a06	0.31135577
83	0x3e2a07c3	0.16604523
84	0xbd52a0aa	-0.051422752
85	0x3f85dba7	1.0457658
86	0x3f150c69	0.5822206
87	0x3e09b184	0.13446623
88	0x3f679395	0.9045957
89	0xbe939267	-0.28822634
90	0x3f421771	0.7581702
91	0x3e924bf0	0.2857356
92	0x3f1d5ec2	0.61472714
93	0x3ec5891b	0.38581166
94	0xbe9b3567	-0.3031418
95	0x3f1b9360	0.6077175
96	0x3dcf1d69	0.101130314
97	0x3b3fdcc5	0.0029275876
98	0x3dbec07f	0.093140595
99	0x3f0ee811	0.55822855
100	0xbefc7bac	-0.49313104
101	0x3f0f37ad	0.5594433
102	0x3f0ba9af	0.5455579
103	0x3d468e7a	0.04847572
104	0x3e4190bc	0.18902868
105	0x3f2b1aaa	0.6683756
106	0x3e32ddb6	0.17467389
107	0x3e986c0e	0.2976994
108	0x3d04a8e9	0.032387648
109	0xbe1fc7fb	-0.1560363
110	0xbe440345	-0.19141872
111	0x3e7cfb5d	0.24705262
112	0x3e8b3738	0.27190566
113	0x3f2f3892	0.68445694
114	0x3f7fa458	0.99860144
115	0xbf705bdf	-0.93890184
116	0x3eb4d19c	0.3531617
117	0x3cb5db92	0.022199426
118	0xbf01e5af	-0.50741094
119	0x3e79c95c	0.24393219
120	0x3e3d903a	0.1851205
121	0xbf0716d4	-0.5276921
122	0xbf8fcae1	-1.1233789
123	0x3e10a790	0.1412642
124	0xbf24cebb	-0.64377946
125	0xbea72ef6	-0.32653016
126	0xbfa91dcd	-1.321222
127	0x3e97e8ff	0.2966995
128	0x3d954b8b	0.07289799
129	0xbf065a6a	-0.5248171
130	0xbf89d9fe	-1.0769651
131	0x3df9af6a	0.12191661
132	0xbfa3a296	-1.2783992
133	0xbf41ad55	-0.7565511
134	0xbf43b196	-0.7644285
135	0xbf2a14c2	-0.66437924
136	0xbef578a9	-0.4794362
137	0x3ec25cf9	0.37961558
138	0x3e081201	0.13288118
139	0x3e2d2c39	0.16911401
140	0x3f5a21d3	0.8520786
141	0x3e91fb56	0.28512067
142	0x3f0305fa	0.51180995
143	0xbf003f7d	-0.50096875
144	0x3f072a76	0.52799165
145	0xbd94043d	-0.07227371
146	0x3ecc9351	0.39956143
147	0x3e97bbf7	0.29635593
148	0xbed1733b	-0.40908226
149	0x3f0dfc6a	0.5546328
150	0xbe3c10f3	-0.1836584
151	0xbf2969ce	-0.6617707
152	0x3ea0d1fc	0.31410205
153	0x3f5d6a0e	0.8648995
154	0x3da31032	0.079620734
155	0x3dc1bf37	0.094602995
156	0x3e5b78e4	0.21432835
157	0x3e000d19	0.12504996
158	0x3f3e9aec	0.7445514
159	0xbe8d00d0	-0.27539682
160	0x3ede51bd	0.43421736
161	0x3e589d21	0.2115369
162	0xbc1ef52f	-0.009702011
163	0x3f958ebd	1.1684185
164	0xbe05bf75	-0.13061316
165	0xbf6d2d90	-0.9264765
166	0x3e5ba161	0.2144828
167	0x3e02b5de	0.1276469
168	0x3f2ee0f5	0.6831201
169	0xbec2b76d	-0.38030568
170	0x3e77e1d5	0.24207242
171	0x3fafdbdf	1.3738974
172	0x3e48dad0	0.1961472
173	0x3b999982	0.004687489
174	0x3e364b46	0.17802152
175	0x3e943aa7	0.28950998
176	0xbf39fde3	-0.72653025
177	0x3ec4eb1c	0.38460624
178	0x3f093672	0.535987
179	0x3d4b10bb	0.049576502
180	0x3f4ffc83	0.8124468
181	0xbe3ce92d	-0.18448325
182	0xbd86dfc4	-0.06585649
183	0x3f72f4e3	0.9490492
184	0xbe20a176	-0.15686592
185	0x3ea44581	0.32084277
186	0xbeb66560	-0.35624218
187	0x3eafc770	0.34331846
188	0x3f536492	0.82575333
189	0xbd84ccfa	-0.06484409
190	0x3db8fb63	0.09032323
191	0x3eb28e61	0.3487425
192	0xbf259a45	-0.6468852
193	0xbb016836	-0.0019745952
194	0xbdcac741	-0.09901286
195	0xbf4d9478	-0.8030467
196	0xbd77c959	-0.060494754
197	0xbf12f25d	-0.57401067
198	0x3f1c9394	0.61162686
199	0x3f50892e	0.8145932

sequential/dense_2/MatMul f4 [4, 10]
0	0x3f7447b3	0.95421904
1	0xbeb5c95b	-0.35505185
2	0x3f21bca9	0.631785
3	0xbfa46f41	-1.2846452
4	0x3f18eb95	0.5973447
5	0x3e39194e	0.18076059
6	0xbe3e897e	-0.18607137
7	0xbf80132e	-1.0005853
8	0x3f2d524f	0.6770372
9	0x3f30f938	0.6913028
10	0xbf19dbb7	-0.60100883
11	0x3fa254f1	1.2682172
12	0xbea3554e	-0.3190102
13	0xbf3ba3bd	-0.7329672
14	0x3d9461bf	0.07245206
15	0xbdcc7b6d	-0.09984479
16	0xbf6b17ee	-0.9183339
17	0x3eedc328	0.46437955
18	0x3e8a700b	0.27038607
19	0x3e9e9928	0.30976224
20	0xbf96ff6f	-1.1796702
21	0xbf94e59a	-1.1632569
22	0x3f1014f2	0.5628196
23	0xbe87dbbd	-0.26534835
24	0xbe1b4c78	-0.1516589
25	0x3dd7a429	0.10529358
26	0xbf082d9a	-0.5319458
27	0x3f2231ce	0.63357246
28	0xbf7253d4	-0.9465916
29	0xbf4f1dc4	-0.80904794
30	0xbc392301	-0.0112998495
31	0xbf5dfb9b	-0.86712044
32	0xbfbf9879	-1.4968406
33	0x3f197229	0.5993982
34	0xbfbbbd6e	-1.4667184
35	0xbf96c954	-1.178019
36	0x3f8de318	1.1084929
37	0xbf18af06	-0.59642065
38	0x3f3dca9a	0.7413727
39	0x3f8770ac	1.058126
