model/point_history_classifier/point_history_classifier.tflite (tflite, 6476 bytes, 6 tensors)

sequential/dense/BiasAdd/ReadVariableOp f4 [24]
-0.102843426 -0.05241164 -0.08540576 -0.090840705 -0.07965019 -0.15136777 0.3834535 -0.046852536
-0.13715944 -0.16559675 -0.1163504 -0.16514899 -0.015200133 0.14711379 0.36969233 -0.086748675
-0.07111906 -0.052521657 -0.07648051 -0.021927705 -0.16255799 -0.0091008 -0.062224615 0.3903487
00000000: 939f d2bd 96ad 56bd 37e9 aebd b10a babd
00000010: a41f a3bd 2700 1bbe 0454 c43e 72e8 3fbd
00000020: 8673 0cbe 3292 29be 1e49 eebd d11c 29be
00000030: fb09 79bc ffa4 163e 5048 bd3e 4aa9 b1bd
00000040: dfa6 91bd f320 57bd d0a1 9cbd bba1 b3bc
00000050: 9a75 26be 861b 15bc 3ddf 7ebd c9db c73e

sequential/dense_2/BiasAdd/ReadVariableOp f4 [5]
0.20348005 0.11980745 0.71388996 -0.9397416 0.49298435
00000000: 135d 503e 9c5d f53d 7ec1 363f e892 70bf
00000010: 7268 fc3e

sequential/dense_1/BiasAdd/ReadVariableOp f4 [10]
0.5123507 0.21919568 0.53779185 0.38403672 0.52447397 1.319204 1.3702142 0.7451609
-0.06836033 0.7240341
00000000: 6a29 033f d574 603e baac 093f 76a0 c43e
00000010: ed43 063f addb a83f 2e63 af3f ddc2 3e3f
00000020: 8000 8cbd 4c5a 393f

sequential/dense/MatMul f4 [24, 32]
-0.089656234 0.27301234 0.3905565 -0.20844659 1.2868927 -0.0956174 1.1634324 0.0058145616
1.1302663 0.108323425 0.870441 0.35594907 0.41828054 0.48422214 0.038514856 0.44082388
-0.13944665 0.6034745 -0.26328894 0.6635105 -0.52045375 0.59166604 -0.7802178 0.46293133
-1.0871981 0.12333335 -0.84539515 -0.16178392 -0.4878388 -0.22595747 -0.87041545 -0.44903436
-0.10628392 -0.17618546 -1.1766664 0.6938212 -1.4289116 -0.53509957 -0.54147923 -0.4700947
-0.3334125 -0.5995098 -0.34927654 -0.5167319 -0.33487424 -0.54535747 0.26661733 -0.62910056
0.844713 -0.4299682 0.9249093 -0.44494694 0.75110364 -0.32047698 0.87441623 0.22126971
0.6764918 0.26184958 0.39818633 0.33460674 -0.077929445 0.59292984 -0.53608084 0.74205494
0.027977556 0.20795041 0.49880856 -0.40846452 1.7464097 -1.3303059 1.1456922 -1.591942
0.89413124 -1.2885829 0.62767744 -0.76472783 -0.2806249 -0.5575563 -0.5731327 -0.47344068
-0.70270854 -0.27086142 -0.71815497 -0.15461755 -1.042677 0.098106466 -0.96115685 0.13118689
-0.94935864 0.21994613 -0.8448 -0.041908965 -0.55277264 -0.08054358 -0.5061519 -0.49910858
0.12613913 -0.030013472 0.18605675 -0.0041263774 0.6423818 -0.2782888 1.4440064 -0.23002897
1.480992 -0.726639 1.535548 -0.70483637 1.240505 -0.5322884 0.7539777 -0.44672465
0.11911729 -0.2490545 -0.1725788 0.119061075 -0.3701079 0.22019608 -0.41056803 0.38876063
-0.5983342 0.27529415 -0.44144943 0.17807998 -0.33687073 0.19758171 -0.10571784 0.049225528
-0.0856383 0.27861726 -1.0930042 -0.7411819 -0.68059045 -0.59508616 -0.024831388 -0.5905978
-0.23803258 -0.48677823 0.13225798 -0.38890007 0.13466284 -0.16991544 0.39468798 -0.2016597
0.3022163 -0.13299315 0.18301657 -0.0730424 0.061298326 -0.04808833 -0.48972446 -0.1288699
-0.6696943 -0.1565888 -0.943966 -0.13112509 -1.2091829 -0.08703076 -1.8098655 -0.31360838
0.101896554 0.31669474 0.3309755 -0.18460514 0.079539604 -2.0101874 -0.629679 -1.7312307
-0.68990487 -1.1482176 -0.62059176 -0.1468991 -0.7688011 0.30929974 -0.8837924 0.48383325
-0.49194312 0.54860485 -0.21989171 0.54686624 0.09748994 0.6324762 0.291185 0.62931937
0.40162227 0.21353146 0.4075417 -0.15828496 0.2612062 -0.4490137 0.17191692 -0.5983987
-0.123990595 -0.3272885 0.22652426 -0.7626456 -0.15393989 0.32862517 -0.28608915 0.6538885
-0.5585807 0.5256291 -0.21141788 -0.33378494 0.36903754 -0.7748891 -0.0078856945 -0.034121875
-0.0653496 0.42866427 -0.1870244 0.12788512 0.23347127 -0.030634241 0.1747557 -0.715153
0.11956831 0.14520843 -0.15935287 0.4759529 -0.22135708 0.39409006 0.10129431 0.33780202
0.3166443 0.31993186 -1.357101 0.857734 -1.1897446 1.580173 -0.4150662 1.4425087
-0.30488595 1.297326 0.22785668 0.7978517 0.70911765 0.3472928 1.2924408 0.38934475
1.3774917 0.37566596 0.9401265 0.031332474 1.0391023 -0.18131286 0.9194208 -0.017213376
0.8127831 -0.049426228 0.66220486 -0.15480904 0.17039685 -0.08741523 0.23843887 -0.16515537
00000000: b09d b7bd 46c8 8b3e 06f7 c73e 0673 55be
00000010: e6b8 a43f 0ed3 c3bd 5aeb 943f 1488 be3b
00000020: 91ac 903f acd8 dd3d 39d5 5e3f f53e b63e
00000030: de28 d63e f7eb f73e c1c1 1d3d abb3 e13e
00000040: 1acb 0ebe 4e7d 1a3f cfcd 86be d3db 293f
00000050: 753c 05bf 6d77 173f 5bbc 47bf 5605 ed3e
00000060: 4f29 8bbf 3296 fc3d d16b 58bf afaa 25be
00000070: 02c6 f9be 6561 67be 8cd3 5ebf d5e7 e5be
00000080: 62ab d9bd f669 34be 019d 96bf 449e 313f
00000090: 93e6 b6bf 49fc 08bf 629e 0abf 41b0 f0be
000000a0: 0bb5 aabe 7979 19bf 60d4 b2be 8b48 04bf
000000b0: a374 abbe 8c9c 0bbf 1182 883e bc0c 21bf
000000c0: 1c3f 583f cb24 dcbe dbc6 6c3f 16d0 e3be
000000d0: 5448 403f 8f15 a4be bed9 5f3f 8794 623e
000000e0: 912e 2d3f 2611 863e 14df cb3e 9351 ab3e
000000f0: 7999 9fbd 40ca 173f 983c 09bf 50f7 3d3f
00000100: 3031 e53c f4f0 543e d663 ff3e 4322 d1be
00000110: 5a8a df3f 7747 aabf 0ba6 923f c1c4 cbbf
00000120: c9e5 643f 49f0 a4bf 78af 203f 34c5 43bf
00000130: 11ae 8fbe 02bc 0ebf d3b8 12bf d166 f2be
00000140: b5e4 33bf 59ae 8abe 01d9 37bf 1054 1ebe
00000150: 7176 85bf 0bec c83d 600e 76bf db55 063e
00000160: 2b09 73bf 8f39 613e d044 58bf bca8 2bbd
00000170: 8282 0dbf 08f4 a4bd 2c93 01bf 298b ffbe
00000180: 9e2a 013e d0de f5bc a985 3e3e 9036 87bb
00000190: 2273 243f df7b 8ebe 34d5 b83f b78c 6bbe
000001a0: 2591 bd3f 0305 3abf d68c c43f 2870 34bf
000001b0: dec8 9e3f 0d44 08bf af04 413f 18b9 e4be
000001c0: c4f3 f33d 2508 7fbe 7fb8 30be 4bd6 f33d
000001d0: c87e bdbe 157b 613e f935 d2be a20b c73e
000001e0: 6e2c 19bf 5bf3 8c3e a905 e2be 995a 363e
000001f0: 527a acbe dc52 4a3e 9882 d8bd b5a0 493d
00000200: 2263 afbd eca6 8e3e 90e7 8bbf 19be 3dbf
00000210: 2d3b 2ebf 9157 18bf 326b cbbc 6b31 17bf
00000220: d0be 73be ff3a f9be a36e 073e e91d c7be
00000230: 0ee5 093e 50fe 2dbe 8b14 ca3e e17f 4ebe
00000240: 18bc 9a3e 5b2f 08be b268 3b3e 4197 95bd
00000250: f413 7b3d 45f8 44bd 2abd fabe 79f6 03be
00000260: 1671 2bbf d058 20be c1a7 71bf a845 06be
00000270: 81c6 9abf 2f3d b2bd aca9 e7bf 4791 a0be
00000280: 24af d03d d025 a23e 9f75 a93e 2109 3dbe
00000290: a9e5 a23d e9a6 00c0 a532 21bf f898 ddbf
000002a0: 9b9d 30bf cbf8 92bf 1adf 1ebf b86c 16be
000002b0: 26d0 44bf 895c 9e3e 3840 62bf feb8 f73e
000002c0: f8df fbbe 5e71 0c3f 4b2b 61be 6dff 0b3f
000002d0: cea8 c73d f6e9 213f 3316 953e 131b 213f
000002e0: 6fa1 cd3e fea7 5a3e 4ea9 d03e 7415 22be
000002f0: d2bc 853e 20e5 e5be fd0a 303e a830 19bf
00000300: c8ee fdbd 5c92 a7be faf5 673e be3c 43bf
00000310: 6ba2 1dbe 8f41 a83e 477a 92be 3d65 273f
00000320: 25ff 0ebf a18f 063f ee7d 58be dce5 aabe
00000330: 7df2 bc3e 225f 46bf 0033 01bc 61c3 0bbd
00000340: 03d6 85bd e279 db3e 5383 3fbe 51f4 023e
00000350: 1813 6f3e a9f4 fabc 29f3 323e 4414 37bf
00000360: 3be0 f43d 85b1 143e 662d 23be 19b0 f33e
00000370: 6eab 62be 2cc6 c93e 6473 cf3d 63f4 ac3e
00000380: 341f a23e 1cce a33e 7cb5 adbf 7594 5b3f
00000390: 8d49 98bf 1c43 ca3f 8f83 d4be 20a4 b83f
000003a0: 031a 9cbe c70e a63f 4353 693e 0240 4c3f
000003b0: bc88 353f 5dd0 b13e b36e a53f 3258 c73e
000003c0: a651 b03f 4a57 c03e 21ac 703f 7b56 003d
000003d0: 4e01 853f 14aa 39be 295f 6b3f 1103 8dbc
000003e0: 8e12 503f 2873 4abd 4286 293f 4386 1ebe
000003f0: 837c 2e3e c206 b3bd 5229 743e 7d1e 29be

sequential/dense_1/MatMul f4 [10, 24]
0.02275033 0.5828683 0.04663898 -1.8350036 0.011440228 -0.62857497 0.09996446 -0.77964246
-0.9708202 -1.187696 -1.0467383 -0.43646315 -2.871774 0.75210494 0.022243427 -0.1543165
-0.98234457 0.75683045 0.5117494 0.9408604 -1.4905627 -0.7556544 0.19092855 0.08236919
0.19450821 0.5162843 1.2560089 1.3265307 1.310834 1.1073647 0.0819223 1.1120592
1.6563987 0.72725093 0.99843293 1.3462363 0.45552337 0.48252478 0.24739431 1.0146393
1.761626 0.9223844 0.4573081 0.8348018 0.82978374 0.4589324 0.94673765 0.37872162
-1.7913524 -2.2767336 -1.9565462 0.15193006 -2.7777267 -1.7438886 0.23648232 -0.038127866
-1.5860529 -1.5321152 -1.6746091 -2.1857178 -0.23381352 -0.0028860325 0.21406467 -2.525678
-1.697237 -3.0313375 -2.5300817 -3.627023 -2.7955046 0.64824116 -2.2866895 0.2515409
1.1289309 1.3573061 0.78599054 1.7409452 0.9689913 0.46000975 0.39664465 1.114025
0.62942004 1.3730658 1.0361453 0.44109192 1.8362538 0.584415 0.09491802 1.4133602
0.29068613 0.7197032 0.67187697 1.2012029 0.67243236 0.048752207 1.2970992 0.14000212
1.1241376 1.2769372 -0.47673425 0.33120853 -0.57898295 -0.7074202 0.16457506 0.29669926
-0.8349664 0.21356086 0.3050295 -0.3795509 0.8976016 -2.7509756 0.22340253 0.10015726
-0.4601085 0.60128 -0.36095476 -0.9144116 -0.3659018 0.59761065 -0.6512285 0.08751307
-0.3344944 -0.40613717 -0.07710935 -0.2682757 -0.26770145 -0.33482757 1.1427146 0.0066758487
-0.060081832 -0.24196115 -0.05003475 -0.106559366 -0.2151713 0.36474833 1.1606909 -0.19692002
-0.1392779 -0.16616254 -0.27916393 -0.34907222 -0.13191211 0.6169388 -0.45993558 1.089291
-0.45685118 -0.58979005 -0.12711386 -1.968419 0.37876666 -2.131555 0.41089705 -0.36393782
-1.1777931 0.1397661 -0.19598636 -0.1466757 -1.422606 -0.074772365 0.32379785 0.29139325
-1.864862 -0.21304685 -1.9638126 -0.86868703 0.26443583 0.049589936 -1.1323857 0.32775816
0.8122491 0.15782253 -0.08892748 -0.5567733 0.13998374 -1.7450745 0.4344438 -0.055143204
-0.7794549 -0.5085241 -0.790654 -0.87072307 -0.1467231 0.48406327 0.5433404 -0.14944471
-0.6413861 0.31246644 -0.5091724 0.13483573 -0.47977802 0.6991704 0.19982532 0.66559863
0.4210445 0.71543485 0.9522202 0.41004813 1.0440818 1.2560142 0.09967274 0.77354586
1.4397749 1.8073281 1.228049 1.3627601 0.7994208 0.69636023 0.09733277 1.1876128
1.3977937 0.9927539 0.7956594 1.2053895 1.1053581 0.33634713 0.67621917 0.09126315
-0.71301305 0.082150884 -0.18288514 0.5536859 -0.5817785 0.07655764 0.49779105 0.09842501
-0.25455898 -0.39161667 0.024163956 0.0876419 0.5019805 -0.11551054 0.4914718 -0.85642624
0.29654136 0.100780085 0.20921586 0.30438218 -0.4757193 0.41720855 0.36971372 0.38629743
00000000: e65e ba3c db36 153f 8408 3f3d 66e1 eabf
00000010: cb6f 3b3c 4aea 20bf 2bba cc3d a696 47bf
00000020: ac87 78bf 6c06 98bf 85fb 85bf 1978 dfbe
00000030: 25cb 37c0 f389 403f d937 b63c 2505 1ebe
00000040: ef7a 7bbf a4bf 413f 0202 033f 3adc 703f
00000050: c2ca bebf 9172 41bf c682 433e 2eb1 a83d
00000060: 292d 473e 352b 043f e6c4 a03f c2cb a93f
00000070: 69c9 a73f 20be 8d3f e1c6 a73d f557 8e3f
00000080: df04 d43f 1e2d 3a3f 4d99 7f3f 7951 ac3f
00000090: 5c3a e93e 7d0d f73e ef54 7d3e b3df 813f
000000a0: f67c e13f 6221 6c3f 4a24 ea3e 92b5 553f
000000b0: b56c 543f 30f9 ea3e 665d 723f cde7 c13e
000000c0: 094b e5bf 01b6 11c0 1b70 fabf 8e93 1b3e
000000d0: 46c6 31c0 be37 dfbf 6c28 723e f72b 1cbd
000000e0: c803 cbbf 5a1c c4bf 9759 d6bf cde2 0bc0
000000f0: d06c 6fbe 9723 3dbb c533 5b3e b5a4 21c0
00000100: 103f d9bf 6f01 42c0 dcec 21c0 2521 68c0
00000110: 8ce9 32c0 22f3 253f 1f59 12c0 f8c9 803e
00000120: cf80 903f 35bc ad3f ad36 493f 4bd7 de3f
00000130: d00f 783f 6686 eb3e 0215 cb3e 5f98 8e3f
00000140: ac21 213f 9fc0 af3f 69a0 843f cdd6 e13e
00000150: 5d0a eb3f 399c 153f 6164 c23d fde8 b43f
00000160: d0d4 943e 783e 383f 2100 2c3f 04c1 993f
00000170: 8724 2c3f 65b0 473d 5907 a63f b75c 0f3e
00000180: bee3 8f3f ae72 a33f 8316 f4be 2a94 a93e
00000190: 3a38 14bf 7d19 35bf 5d86 283e f7e8 973e
000001a0: 5cc0 55bf b3af 5a3e d42c 9c3e 7f54 c2be
000001b0: 38c9 653f fc0f 30c0 a2c3 643e 401f cd3d
000001c0: 5793 ebbe 7ced 193f 10cf b8be e116 6abf
000001d0: 7b57 bbbe 03fd 183f e9b6 26bf 0d3a b33d
000001e0: da42 abbe 36f1 cfbe 82eb 9dbd 6f5b 89be
000001f0: 2a10 89be 856e abbe 7944 923f 14c1 da3b
00000200: 5e18 76bd aac4 77be 3df1 4cbd cc3b dabd
00000210: de55 5cbe 4bc0 ba3e 8591 943f 67a5 49be
00000220: de9e 0ebe 8326 2abe 93ee 8ebe 98b9 b2be
00000230: f813 07be b4ef 1d3f ad7c ebbe e36d 8b3f
00000240: 66e8 e9be 7bfc 16bf 232a 02be 27f5 fbbf
00000250: b4ed c13e 666b 08c0 1961 d23e 0f56 babe
00000260: edc1 96bf d81e 0f3e a6b0 48be 2832 16be
00000270: f417 b6bf 4122 99bd d5c8 a53e 7f31 953e
00000280: ccb3 eebf f428 5abe 365e fbbf 4662 5ebf
00000290: 2264 873e d11e 4b3d 04f2 90bf ebcf a73e
000002a0: 8fef 4f3f 3b9c 213e 9c1f b6bd b288 0ebf
000002b0: e657 0f3e 9a5e dfbf 6b6f de3e d7dd 61bd
000002c0: 5b8a 47bf a32e 02bf 4d68 4abf b5e7 5ebf
000002d0: 953e 16be 24d7 f73e 5b18 0b3f 0908 19be
000002e0: e131 24bf 9afb 9f3e 1f59 02bf 6112 0a3e
000002f0: 77a5 f5be d5fc 323f 029f 4c3e ac64 2a3f
00000300: 2593 d73e bd26 373f b4c4 733f d4f1 d13e
00000310: 79a4 853f 13c5 a03f 3921 cc3d 1a07 463f
00000320: 8b4a b83f 8756 e73f b630 9d3f ec6e ae3f
00000330: d7a6 4c3f aa44 323f 6756 c73d b203 983f
00000340: e7ea b23f 1f25 7e3f 56b0 4b3f 344a 9a3f
00000350: 607c 8d3f b135 ac3e b31c 2d3f 2de8 ba3d
00000360: 0688 36bf b93e a83d 3e46 3bbe 5cbe 0d3f
00000370: 70ef 14bf 41ca 9c3d 78de fe3e 0d93 c93d
00000380: 8e55 82be fb81 c8be 7df3 c53c 997d b33d
00000390: cb81 003f ca90 ecbd 31a2 fb3e c03e 5bbf
000003a0: 45d4 973e ca65 ce3d af3c 563e fbd7 9b3e
000003b0: 7b91 f3be 5c9c d53e 1e4b bd3e c7c8 c53e

sequential/dense_2/MatMul f4 [5, 10]
1.5774109 -3.05317 2.7548146 -3.3934515 -2.732458 1.067421 1.9691344 0.3849649
-5.0665264 -1.11323 0.87182343 -0.11689429 -0.45799506 0.7428144 1.1701895 -0.034829725
-1.9762244 0.817369 -0.99401486 0.87491083 -1.6905708 0.94061136 -1.6173947 0.29189157
-1.3411913 0.7878284 -0.9449568 -0.93067086 0.0622587 0.78108454 -0.7628828 0.51697445
-1.2755669 0.08981347 0.72112036 0.28174514 0.75860924 -0.19852462 0.8974247 -0.4634132
-0.5369585 0.28969023 -0.6832577 0.3474873 0.5177542 -2.2414443 -0.1505951 -1.1323825
0.8283808 -0.37250188
00000000: 9ae8 c93f 2367 43c0 e24e 3040 4f2e 59c0
00000010: 98e0 2ec0 40a1 883f 990c fc3f 1f1a c53e
00000020: fc20 a2c0 527e 8ebf d22f 5f3f 4666 efbd
00000030: 547e eabe 1629 3e3f c5c8 953f 9da9 0ebd
00000040: ecf4 fcbf 183f 513f c277 7ebf 28fa 5f3f
00000050: a064 d8bf e8cb 703f ca06 cfbf d072 953e
00000060: 28ac abbf 1faf 493f b0e8 71bf 7240 6ebf
00000070: fb02 7f3d 28f5 473f 4a4c 43bf 7058 043f
00000080: c745 a3bf 20f0 b73d 589b 383f e640 903e
00000090: 3734 423f 0a4a 4bbe a0bd 653f 7f44 edbe
000000a0: 1d76 09bf 4752 943e fae9 2ebf dbe9 b13e
000000b0: 8a8b 043f d373 0fc0 9a35 1abe e9f1 90bf
000000c0: c410 543f 91b8 bebe
